…
 l2              | 1e-06               
 lr              | 0.0001              
 num_heads       | 1                   
 num_layers      | 1                   
 num_neg         | 1                   
 num_workers     | 5                   
 optimizer       | Adam                
 random_seed     | 0                   
 test_all        | 0                   
 time_max        | 512                 
 topk            | 5,10,20,50          
========================================
INFO:root:Device: cpu
INFO:root:Load corpus from ../data/Grocery_and_Gourmet_Food/SeqReader.pkl
INFO:root:#params: 647104
INFO:root:TiSASRec(
  (i_embeddings): Embedding(8714, 64)
  (p_k_embeddings): Embedding(21, 64)
  (p_v_embeddings): Embedding(21, 64)
  (t_k_embeddings): Embedding(513, 64)
  (t_v_embeddings): Embedding(513, 64)
  (transformer_block): ModuleList(
    (0): TimeIntervalTransformerLayer(
      (masked_attn_head): TimeIntervalMultiHeadAttention(
        (v_linear): Linear(in_features=64, out_features=64, bias=True)
        (k_linear): Linear(in_features=64, out_features=64, bias=True)
        (q_linear): Linear(in_features=64, out_features=64, bias=True)
      )
      (layer_norm1): LayerNorm((64,), eps=1e-05, elementwise_affine=True)
      (dropout1): Dropout(p=0, inplace=False)
      (linear1): Linear(in_features=64, out_features=64, bias=True)
      (linear2): Linear(in_features=64, out_features=64, bias=True)
      (layer_norm2): LayerNorm((64,), eps=1e-05, elementwise_affine=True)
      (dropout2): Dropout(p=0, inplace=False)
    )
  )
)
INFO:root:Optimizer: Adam
INFO:root:Early stop manually
INFO:root:Early stop manually
INFO:root:Early stop manually
INFO:root:
--------------------------------------------- END: 2025-01-13 17:53:13 ---------------------------------------------
INFO:root:Namespace(model_name='TiSASRec')
INFO:root:--------------------------------------------- BEGIN: 2025-01-13 17:53:47 ---------------------------------------------
…
