…
 lr                  | 0.0001              
 num_heads           | 4                   
 num_layers          | 2                   
 num_neg             | 1                   
 num_workers         | 5                   
 optimizer           | Adam                
 random_seed         | 0                   
 test_all            | 0                   
 topk                | 5,10,20,50          
============================================
INFO:root:Device: cpu
INFO:root:Load corpus from ../data/Grocery_and_Gourmet_Food\SeqReader.pkl
INFO:root:#params: 584384
INFO:root:BSARec(
  (i_embeddings): Embedding(8714, 64, padding_idx=0)
  (p_embeddings): Embedding(21, 64)
  (frequency_layer): ModuleList(
    (0): FrequencyLayer(
      (out_dropout): Dropout(p=0.5, inplace=False)
      (LayerNorm): LayerNorm((64,), eps=1e-12, elementwise_affine=True)
    )
    (1): FrequencyLayer(
      (out_dropout): Dropout(p=0.5, inplace=False)
      (LayerNorm): LayerNorm((64,), eps=1e-12, elementwise_affine=True)
    )
  )
  (attention_layer): ModuleList(
    (0): MultiHeadAttention(
      (q_linear): Linear(in_features=64, out_features=64, bias=True)
      (k_linear): Linear(in_features=64, out_features=64, bias=True)
      (v_linear): Linear(in_features=64, out_features=64, bias=True)
    )
    (1): MultiHeadAttention(
      (q_linear): Linear(in_features=64, out_features=64, bias=True)
      (k_linear): Linear(in_features=64, out_features=64, bias=True)
      (v_linear): Linear(in_features=64, out_features=64, bias=True)
    )
  )
)
INFO:root:Optimizer: Adam
INFO:root:Namespace(model_name='BSARec')
INFO:root:--------------------------------------------- BEGIN: 2024-12-03 17:36:59 ---------------------------------------------
INFO:root:
============================================
 Arguments           | Values               
============================================
…
