…
 lr                  | 0.0001              
 num_heads           | 2                   
 num_layers          | 2                   
 num_neg             | 1                   
 num_workers         | 5                   
 optimizer           | Adam                
 random_seed         | 0                   
 test_all            | 0                   
 topk                | 5,10,20,50          
============================================
INFO:root:Device: cpu
INFO:root:Load corpus from ../data/Grocery_and_Gourmet_Food\SeqReader.pkl
INFO:root:#params: 586304
INFO:root:BSARec(
  (i_embeddings): Embedding(8714, 64)
  (p_embeddings): Embedding(51, 64)
  (frequency_layer): ModuleList(
    (0): FrequencyLayer(
      (out_dropout): Dropout(p=0.5, inplace=False)
      (LayerNorm): LayerNorm((64,), eps=1e-12, elementwise_affine=True)
    )
    (1): FrequencyLayer(
      (out_dropout): Dropout(p=0.5, inplace=False)
      (LayerNorm): LayerNorm((64,), eps=1e-12, elementwise_affine=True)
    )
  )
  (attention_layer): ModuleList(
    (0): MultiHeadAttention(
      (q_linear): Linear(in_features=64, out_features=64, bias=True)
      (k_linear): Linear(in_features=64, out_features=64, bias=True)
      (v_linear): Linear(in_features=64, out_features=64, bias=True)
    )
    (1): MultiHeadAttention(
      (q_linear): Linear(in_features=64, out_features=64, bias=True)
      (k_linear): Linear(in_features=64, out_features=64, bias=True)
      (v_linear): Linear(in_features=64, out_features=64, bias=True)
    )
  )
)
INFO:root:Optimizer: Adam
INFO:root:Epoch 1     loss=0.6302 [59.5 s]    dev=(HR@5:0.2409,NDCG@5:0.1568) [10.0 s] *
INFO:root:Epoch 2     loss=0.4944 [85.0 s]    dev=(HR@5:0.2450,NDCG@5:0.1597) [12.7 s] *
INFO:root:Epoch 3     loss=0.4434 [131.6 s]    dev=(HR@5:0.2453,NDCG@5:0.1603) [19.9 s] *
INFO:root:Epoch 4     loss=0.4254 [138.6 s]    dev=(HR@5:0.2494,NDCG@5:0.1641) [14.6 s] *
…
 lr                  | 0.0001              
 num_heads           | 2                   
 num_layers          | 2                   
 num_neg             | 1                   
 num_workers         | 5                   
 optimizer           | Adam                
 random_seed         | 0                   
 test_all            | 0                   
 topk                | 5,10,20,50          
============================================
INFO:root:Device: cpu
INFO:root:Load corpus from ../data/Grocery_and_Gourmet_Food\SeqReader.pkl
INFO:root:#params: 586240
INFO:root:BSARec(
  (i_embeddings): Embedding(8714, 64, padding_idx=0)
  (p_embeddings): Embedding(50, 64)
  (frequency_layer): ModuleList(
    (0): FrequencyLayer(
      (out_dropout): Dropout(p=0.5, inplace=False)
      (LayerNorm): LayerNorm((64,), eps=1e-12, elementwise_affine=True)
    )
    (1): FrequencyLayer(
      (out_dropout): Dropout(p=0.5, inplace=False)
      (LayerNorm): LayerNorm((64,), eps=1e-12, elementwise_affine=True)
    )
  )
  (attention_layer): ModuleList(
    (0): MultiHeadAttention(
      (q_linear): Linear(in_features=64, out_features=64, bias=True)
      (k_linear): Linear(in_features=64, out_features=64, bias=True)
      (v_linear): Linear(in_features=64, out_features=64, bias=True)
    )
    (1): MultiHeadAttention(
      (q_linear): Linear(in_features=64, out_features=64, bias=True)
      (k_linear): Linear(in_features=64, out_features=64, bias=True)
      (v_linear): Linear(in_features=64, out_features=64, bias=True)
    )
  )
)
INFO:root:Optimizer: Adam
INFO:root:Namespace(model_name='BSARec')
INFO:root:--------------------------------------------- BEGIN: 2024-10-10 17:24:51 ---------------------------------------------
INFO:root:
============================================
 Arguments           | Values               
============================================
…
 lr                  | 0.0001              
 num_heads           | 2                   
 num_layers          | 2                   
 num_neg             | 1                   
 num_workers         | 5                   
 optimizer           | Adam                
 random_seed         | 0                   
 test_all            | 0                   
 topk                | 5,10,20,50          
============================================
INFO:root:Device: cpu
INFO:root:Load corpus from ../data/Grocery_and_Gourmet_Food\SeqReader.pkl
INFO:root:#params: 586304
INFO:root:BSARec(
  (i_embeddings): Embedding(8714, 64, padding_idx=0)
  (p_embeddings): Embedding(51, 64)
  (frequency_layer): ModuleList(
    (0): FrequencyLayer(
      (out_dropout): Dropout(p=0.5, inplace=False)
      (LayerNorm): LayerNorm((64,), eps=1e-12, elementwise_affine=True)
    )
    (1): FrequencyLayer(
      (out_dropout): Dropout(p=0.5, inplace=False)
      (LayerNorm): LayerNorm((64,), eps=1e-12, elementwise_affine=True)
    )
  )
  (attention_layer): ModuleList(
    (0): MultiHeadAttention(
      (q_linear): Linear(in_features=64, out_features=64, bias=True)
      (k_linear): Linear(in_features=64, out_features=64, bias=True)
      (v_linear): Linear(in_features=64, out_features=64, bias=True)
    )
    (1): MultiHeadAttention(
      (q_linear): Linear(in_features=64, out_features=64, bias=True)
      (k_linear): Linear(in_features=64, out_features=64, bias=True)
      (v_linear): Linear(in_features=64, out_features=64, bias=True)
    )
  )
)
INFO:root:Optimizer: Adam
INFO:root:Epoch 1     loss=0.6305 [78.3 s]    dev=(HR@5:0.2398,NDCG@5:0.1563) [10.3 s] *
INFO:root:Epoch 2     loss=0.4930 [91.1 s]    dev=(HR@5:0.2449,NDCG@5:0.1597) [13.0 s] *
INFO:root:Epoch 3     loss=0.4432 [148.4 s]    dev=(HR@5:0.2449,NDCG@5:0.1601) [14.7 s] *
INFO:root:Epoch 4     loss=0.4262 [96.9 s]    dev=(HR@5:0.2486,NDCG@5:0.1631) [15.1 s] *
…
