…
 num_layers                   | 2                   
 num_neg                      | 1                   
 num_workers                  | 0                   
 optimizer                    | Adam                
 random_seed                  | 0                   
 test_all                     | 0                   
 topk                         | 5,10,20,50          
=====================================================
INFO:root:Device: cuda
INFO:root:Load corpus from ../data/Grocery_and_Gourmet_Food\SeqReader.pkl
INFO:root:#params: 661312
INFO:root:BSARec(
  (i_embeddings): Embedding(8714, 64)
  (p_embeddings): Embedding(51, 64)
  (transformer_block): ModuleList(
    (0): BSARecBlock(
      (layer): BSARecLayer(
        (filter_layer): FrequencyLayer(
          (out_dropout): Dropout(p=0, inplace=False)
          (LayerNorm): LayerNorm((64,), eps=1e-05, elementwise_affine=True)
        )
        (attention_layer): MultiHeadAttention(
          (query): Linear(in_features=64, out_features=64, bias=True)
          (key): Linear(in_features=64, out_features=64, bias=True)
          (value): Linear(in_features=64, out_features=64, bias=True)
          (softmax): Softmax(dim=-1)
          (attn_dropout): Dropout(p=0.1, inplace=False)
          (dense): Linear(in_features=64, out_features=64, bias=True)
          (LayerNorm): LayerNorm((64,), eps=1e-12, elementwise_affine=True)
          (out_dropout): Dropout(p=0.1, inplace=False)
        )
      )
      (feed_forward): FeedForward(
        (dense_1): Linear(in_features=64, out_features=256, bias=True)
        (dense_2): Linear(in_features=256, out_features=64, bias=True)
        (LayerNorm): LayerNorm((64,), eps=1e-12, elementwise_affine=True)
        (dropout): Dropout(p=0.1, inplace=False)
      )
    )
    (1): BSARecBlock(
      (layer): BSARecLayer(
        (filter_layer): FrequencyLayer(
          (out_dropout): Dropout(p=0, inplace=False)
          (LayerNorm): LayerNorm((64,), eps=1e-05, elementwise_affine=True)
        )
        (attention_layer): MultiHeadAttention(
          (query): Linear(in_features=64, out_features=64, bias=True)
          (key): Linear(in_features=64, out_features=64, bias=True)
          (value): Linear(in_features=64, out_features=64, bias=True)
          (softmax): Softmax(dim=-1)
          (attn_dropout): Dropout(p=0.1, inplace=False)
          (dense): Linear(in_features=64, out_features=64, bias=True)
          (LayerNorm): LayerNorm((64,), eps=1e-12, elementwise_affine=True)
          (out_dropout): Dropout(p=0.1, inplace=False)
        )
      )
      (feed_forward): FeedForward(
        (dense_1): Linear(in_features=64, out_features=256, bias=True)
        (dense_2): Linear(in_features=256, out_features=64, bias=True)
        (LayerNorm): LayerNorm((64,), eps=1e-12, elementwise_affine=True)
        (dropout): Dropout(p=0.1, inplace=False)
      )
    )
  )
)
INFO:root:Optimizer: Adam
INFO:root:Epoch 1     loss=0.5163 [22.0 s]    dev=(HR@5:0.2509,NDCG@5:0.1667) [0.9 s] *
INFO:root:Epoch 2     loss=0.4331 [20.1 s]    dev=(HR@5:0.3203,NDCG@5:0.2167) [0.9 s] *
INFO:root:Epoch 3     loss=0.4002 [20.0 s]    dev=(HR@5:0.3376,NDCG@5:0.2280) [0.9 s] *
…
 num_heads                    | 2                   
 num_layers                   | 2                   
 num_neg                      | 1                   
 num_workers                  | 0                   
 optimizer                    | Adam                
 random_seed                  | 0                   
 test_all                     | 0                   
 topk                         | 5,10,20,50          
=====================================================
INFO:root:Device: cuda
INFO:root:Load corpus from ../data/Grocery_and_Gourmet_Food/SeqReader.pkl
INFO:root:#params: 661312
INFO:root:BSARec(
  (i_embeddings): Embedding(8714, 64)
  (p_embeddings): Embedding(51, 64)
  (transformer_block): ModuleList(
    (0): BSARecBlock(
      (layer): BSARecLayer(
        (filter_layer): FrequencyLayer(
          (out_dropout): Dropout(p=0, inplace=False)
          (LayerNorm): LayerNorm((64,), eps=1e-05, elementwise_affine=True)
        )
        (attention_layer): MultiHeadAttention(
          (query): Linear(in_features=64, out_features=64, bias=True)
          (key): Linear(in_features=64, out_features=64, bias=True)
          (value): Linear(in_features=64, out_features=64, bias=True)
          (softmax): Softmax(dim=-1)
          (attn_dropout): Dropout(p=0.1, inplace=False)
          (dense): Linear(in_features=64, out_features=64, bias=True)
          (LayerNorm): LayerNorm((64,), eps=1e-12, elementwise_affine=True)
          (out_dropout): Dropout(p=0.1, inplace=False)
        )
      )
      (feed_forward): FeedForward(
        (dense_1): Linear(in_features=64, out_features=256, bias=True)
        (dense_2): Linear(in_features=256, out_features=64, bias=True)
        (LayerNorm): LayerNorm((64,), eps=1e-12, elementwise_affine=True)
        (dropout): Dropout(p=0.1, inplace=False)
      )
    )
    (1): BSARecBlock(
      (layer): BSARecLayer(
        (filter_layer): FrequencyLayer(
          (out_dropout): Dropout(p=0, inplace=False)
          (LayerNorm): LayerNorm((64,), eps=1e-05, elementwise_affine=True)
        )
        (attention_layer): MultiHeadAttention(
          (query): Linear(in_features=64, out_features=64, bias=True)
          (key): Linear(in_features=64, out_features=64, bias=True)
          (value): Linear(in_features=64, out_features=64, bias=True)
          (softmax): Softmax(dim=-1)
          (attn_dropout): Dropout(p=0.1, inplace=False)
          (dense): Linear(in_features=64, out_features=64, bias=True)
          (LayerNorm): LayerNorm((64,), eps=1e-12, elementwise_affine=True)
          (out_dropout): Dropout(p=0.1, inplace=False)
        )
      )
      (feed_forward): FeedForward(
        (dense_1): Linear(in_features=64, out_features=256, bias=True)
        (dense_2): Linear(in_features=256, out_features=64, bias=True)
        (LayerNorm): LayerNorm((64,), eps=1e-12, elementwise_affine=True)
        (dropout): Dropout(p=0.1, inplace=False)
      )
    )
  )
)
INFO:root:Optimizer: Adam
INFO:root:Namespace(model_name='BSARec')
INFO:root:--------------------------------------------- BEGIN: 2024-12-21 20:30:55 ---------------------------------------------
INFO:root:
=====================================================
 Arguments                    | Values               
…
