…
 lr                  | 0.001               
 num_heads           | 4                   
 num_layers          | 2                   
 num_neg             | 1                   
 num_workers         | 5                   
 optimizer           | Adam                
 random_seed         | 0                   
 test_all            | 0                   
 topk                | 5,10,20,50          
============================================
INFO:root:Device: cpu
INFO:root:Load corpus from ../data/Grocery_and_Gourmet_Food\SeqReader.pkl
INFO:root:#params: 584384
INFO:root:BSARec(
  (i_embeddings): Embedding(8714, 64, padding_idx=0)
  (p_embeddings): Embedding(21, 64)
  (frequency_layer): ModuleList(
    (0): FrequencyLayer(
      (out_dropout): Dropout(p=0.5, inplace=False)
      (LayerNorm): LayerNorm((64,), eps=1e-12, elementwise_affine=True)
    )
    (1): FrequencyLayer(
      (out_dropout): Dropout(p=0.5, inplace=False)
      (LayerNorm): LayerNorm((64,), eps=1e-12, elementwise_affine=True)
    )
  )
  (attention_layer): ModuleList(
    (0): MultiHeadAttention(
      (q_linear): Linear(in_features=64, out_features=64, bias=True)
      (k_linear): Linear(in_features=64, out_features=64, bias=True)
      (v_linear): Linear(in_features=64, out_features=64, bias=True)
    )
    (1): MultiHeadAttention(
      (q_linear): Linear(in_features=64, out_features=64, bias=True)
      (k_linear): Linear(in_features=64, out_features=64, bias=True)
      (v_linear): Linear(in_features=64, out_features=64, bias=True)
    )
  )
)
INFO:root:Optimizer: Adam
INFO:root:Epoch 1     loss=0.4842 [65.2 s]    dev=(HR@5:0.3075,NDCG@5:0.2097) [8.9 s] *
INFO:root:Epoch 2     loss=0.3855 [38.2 s]    dev=(HR@5:0.3455,NDCG@5:0.2380) [8.4 s] *
INFO:root:Epoch 3     loss=0.3358 [37.8 s]    dev=(HR@5:0.3690,NDCG@5:0.2585) [8.7 s] *
INFO:root:Epoch 4     loss=0.2920 [38.8 s]    dev=(HR@5:0.3806,NDCG@5:0.2725) [8.7 s] *
…
