…
 l2                           | 0.001       
 lr                           | 0.0005      
 num_heads                    | 2           
 num_layers                   | 2           
 num_neg                      | 1           
 num_workers                  | 0           
 optimizer                    | Adam        
 random_seed                  | 0           
 test_all                     | 0           
 topk                         | 5,10,20,50  
=============================================
Device: cuda
Load corpus from ../data/MovieLens_1M/SeqReader.pkl
#params: 303680
BSARec(
  (i_embeddings): Embedding(3126, 64)
  (p_embeddings): Embedding(51, 64)
  (transformer_block): ModuleList(
    (0): BSARecBlock(
      (layer): BSARecLayer(
        (filter_layer): FrequencyLayer(
          (out_dropout): Dropout(p=0, inplace=False)
          (LayerNorm): LayerNorm((64,), eps=1e-05, elementwise_affine=True)
        )
        (attention_layer): MultiHeadAttention(
          (query): Linear(in_features=64, out_features=64, bias=True)
          (key): Linear(in_features=64, out_features=64, bias=True)
          (value): Linear(in_features=64, out_features=64, bias=True)
          (softmax): Softmax(dim=-1)
          (attn_dropout): Dropout(p=0.1, inplace=False)
          (dense): Linear(in_features=64, out_features=64, bias=True)
          (LayerNorm): LayerNorm((64,), eps=1e-12, elementwise_affine=True)
          (out_dropout): Dropout(p=0.1, inplace=False)
        )
      )
      (feed_forward): FeedForward(
        (dense_1): Linear(in_features=64, out_features=256, bias=True)
        (dense_2): Linear(in_features=256, out_features=64, bias=True)
        (LayerNorm): LayerNorm((64,), eps=1e-12, elementwise_affine=True)
        (dropout): Dropout(p=0.1, inplace=False)
      )
    )
    (1): BSARecBlock(
      (layer): BSARecLayer(
        (filter_layer): FrequencyLayer(
          (out_dropout): Dropout(p=0, inplace=False)
          (LayerNorm): LayerNorm((64,), eps=1e-05, elementwise_affine=True)
        )
        (attention_layer): MultiHeadAttention(
          (query): Linear(in_features=64, out_features=64, bias=True)
          (key): Linear(in_features=64, out_features=64, bias=True)
          (value): Linear(in_features=64, out_features=64, bias=True)
          (softmax): Softmax(dim=-1)
          (attn_dropout): Dropout(p=0.1, inplace=False)
          (dense): Linear(in_features=64, out_features=64, bias=True)
          (LayerNorm): LayerNorm((64,), eps=1e-12, elementwise_affine=True)
          (out_dropout): Dropout(p=0.1, inplace=False)
        )
      )
      (feed_forward): FeedForward(
        (dense_1): Linear(in_features=64, out_features=256, bias=True)
        (dense_2): Linear(in_features=256, out_features=64, bias=True)
        (LayerNorm): LayerNorm((64,), eps=1e-12, elementwise_affine=True)
        (dropout): Dropout(p=0.1, inplace=False)
      )
    )
  )
)
Optimizer: Adam
Epoch 1     loss=0.3246 [63.7 s]    dev=(HR@5:0.3973,NDCG@5:0.2611) [0.1 s] *
Epoch 2     loss=0.2260 [61.6 s]    dev=(HR@5:0.4356,NDCG@5:0.2958) [0.1 s] *
Epoch 3     loss=0.2030 [62.6 s]    dev=(HR@5:0.4387,NDCG@5:0.3012) [0.1 s] *
Epoch 4     loss=0.1906 [62.2 s]    dev=(HR@5:0.4504,NDCG@5:0.3092) [0.1 s] *
…
