…
 eval_batch_size | 256         
 gpu             | 0           
 history_max     | 20          
 l2              | 1e-06       
 lr              | 0.0001      
 num_heads       | 1           
 num_layers      | 1           
 num_neg         | 1           
 num_workers     | 0           
 optimizer       | Adam        
 random_seed     | 0           
 test_all        | 0           
 time_max        | 512         
 topk            | 5,10,20,50  
================================
INFO:root:Device: cuda
INFO:root:Load corpus from ../data/MovieLens_1M/SeqReader.pkl
INFO:root:#params: 289472
INFO:root:TiSASRec(
  (i_embeddings): Embedding(3126, 64)
  (p_k_embeddings): Embedding(21, 64)
  (p_v_embeddings): Embedding(21, 64)
  (t_k_embeddings): Embedding(513, 64)
  (t_v_embeddings): Embedding(513, 64)
  (transformer_block): ModuleList(
    (0): TimeIntervalTransformerLayer(
      (masked_attn_head): TimeIntervalMultiHeadAttention(
        (v_linear): Linear(in_features=64, out_features=64, bias=True)
        (k_linear): Linear(in_features=64, out_features=64, bias=True)
        (q_linear): Linear(in_features=64, out_features=64, bias=True)
      )
      (layer_norm1): LayerNorm((64,), eps=1e-05, elementwise_affine=True)
      (dropout1): Dropout(p=0, inplace=False)
      (linear1): Linear(in_features=64, out_features=64, bias=True)
      (linear2): Linear(in_features=64, out_features=64, bias=True)
      (layer_norm2): LayerNorm((64,), eps=1e-05, elementwise_affine=True)
      (dropout2): Dropout(p=0, inplace=False)
    )
  )
)
INFO:root:Optimizer: Adam
INFO:root:Epoch 1     loss=0.4036 [47.1 s]    dev=(HR@5:0.3431,NDCG@5:0.2307) [0.0 s] *
INFO:root:Epoch 2     loss=0.3014 [45.5 s]    dev=(HR@5:0.3934,NDCG@5:0.2636) [0.1 s] *
INFO:root:Epoch 3     loss=0.2485 [44.2 s]    dev=(HR@5:0.4118,NDCG@5:0.2757) [0.0 s] *
INFO:root:Epoch 4     loss=0.2123 [44.1 s]    dev=(HR@5:0.4520,NDCG@5:0.3100) [0.0 s] *
…
