…
 epoch           | 200         
 eval_batch_size | 256         
 gpu             | 0           
 history_max     | 50          
 l2              | 1e-06       
 lr              | 0.0001      
 num_heads       | 1           
 num_layers      | 2           
 num_neg         | 1           
 num_workers     | 0           
 optimizer       | Adam        
 random_seed     | 0           
 test_all        | 0           
 topk            | 5,10,20,50  
================================
INFO:root:Device: cuda
INFO:root:Load corpus from ../data/MovieLens_1M/SeqReader.pkl
INFO:root:#params: 245440
INFO:root:SASRec(
  (i_embeddings): Embedding(3126, 64)
  (p_embeddings): Embedding(51, 64)
  (transformer_block): ModuleList(
    (0): TransformerLayer(
      (masked_attn_head): MultiHeadAttention(
        (q_linear): Linear(in_features=64, out_features=64, bias=True)
        (k_linear): Linear(in_features=64, out_features=64, bias=True)
        (v_linear): Linear(in_features=64, out_features=64, bias=True)
      )
      (layer_norm1): LayerNorm((64,), eps=1e-05, elementwise_affine=True)
      (dropout1): Dropout(p=0, inplace=False)
      (linear1): Linear(in_features=64, out_features=64, bias=True)
      (linear2): Linear(in_features=64, out_features=64, bias=True)
      (layer_norm2): LayerNorm((64,), eps=1e-05, elementwise_affine=True)
      (dropout2): Dropout(p=0, inplace=False)
    )
    (1): TransformerLayer(
      (masked_attn_head): MultiHeadAttention(
        (q_linear): Linear(in_features=64, out_features=64, bias=True)
        (k_linear): Linear(in_features=64, out_features=64, bias=True)
        (v_linear): Linear(in_features=64, out_features=64, bias=True)
      )
      (layer_norm1): LayerNorm((64,), eps=1e-05, elementwise_affine=True)
      (dropout1): Dropout(p=0, inplace=False)
      (linear1): Linear(in_features=64, out_features=64, bias=True)
      (linear2): Linear(in_features=64, out_features=64, bias=True)
      (layer_norm2): LayerNorm((64,), eps=1e-05, elementwise_affine=True)
      (dropout2): Dropout(p=0, inplace=False)
    )
  )
)
INFO:root:Optimizer: Adam
INFO:root:Epoch 1     loss=0.3981 [50.6 s]    dev=(HR@5:0.3392,NDCG@5:0.2260) [0.1 s] *
INFO:root:Epoch 2     loss=0.3084 [51.5 s]    dev=(HR@5:0.3786,NDCG@5:0.2524) [0.1 s] *
INFO:root:Epoch 3     loss=0.2504 [49.2 s]    dev=(HR@5:0.4169,NDCG@5:0.2832) [0.1 s] *
INFO:root:Epoch 4     loss=0.2053 [51.8 s]    dev=(HR@5:0.4500,NDCG@5:0.3128) [0.1 s] *
…
