…
 num_heads                    | 1                   
 num_layers                   | 2                   
 num_neg                      | 1                   
 num_workers                  | 0                   
 optimizer                    | Adam                
 random_seed                  | 0                   
 test_all                     | 0                   
 topk                         | 5,10,20,50          
=====================================================
Device: cuda
Load corpus from ../data/Grocery_and_Gourmet_Food\SeqReader.pkl
#params: 661312
BSARec(
  (i_embeddings): Embedding(8714, 64)
  (p_embeddings): Embedding(51, 64)
  (transformer_block): ModuleList(
    (0): BSARecBlock(
      (layer): BSARecLayer(
        (filter_layer): FrequencyLayer(
          (out_dropout): Dropout(p=0, inplace=False)
          (LayerNorm): LayerNorm((64,), eps=1e-05, elementwise_affine=True)
        )
        (attention_layer): MultiHeadAttention(
          (query): Linear(in_features=64, out_features=64, bias=True)
          (key): Linear(in_features=64, out_features=64, bias=True)
          (value): Linear(in_features=64, out_features=64, bias=True)
          (softmax): Softmax(dim=-1)
          (attn_dropout): Dropout(p=0.1, inplace=False)
          (dense): Linear(in_features=64, out_features=64, bias=True)
          (LayerNorm): LayerNorm((64,), eps=1e-12, elementwise_affine=True)
          (out_dropout): Dropout(p=0.1, inplace=False)
        )
      )
      (feed_forward): FeedForward(
        (dense_1): Linear(in_features=64, out_features=256, bias=True)
        (dense_2): Linear(in_features=256, out_features=64, bias=True)
        (LayerNorm): LayerNorm((64,), eps=1e-12, elementwise_affine=True)
        (dropout): Dropout(p=0.1, inplace=False)
      )
    )
    (1): BSARecBlock(
      (layer): BSARecLayer(
        (filter_layer): FrequencyLayer(
          (out_dropout): Dropout(p=0, inplace=False)
          (LayerNorm): LayerNorm((64,), eps=1e-05, elementwise_affine=True)
        )
        (attention_layer): MultiHeadAttention(
          (query): Linear(in_features=64, out_features=64, bias=True)
          (key): Linear(in_features=64, out_features=64, bias=True)
          (value): Linear(in_features=64, out_features=64, bias=True)
          (softmax): Softmax(dim=-1)
          (attn_dropout): Dropout(p=0.1, inplace=False)
          (dense): Linear(in_features=64, out_features=64, bias=True)
          (LayerNorm): LayerNorm((64,), eps=1e-12, elementwise_affine=True)
          (out_dropout): Dropout(p=0.1, inplace=False)
        )
      )
      (feed_forward): FeedForward(
        (dense_1): Linear(in_features=64, out_features=256, bias=True)
        (dense_2): Linear(in_features=256, out_features=64, bias=True)
        (LayerNorm): LayerNorm((64,), eps=1e-12, elementwise_affine=True)
        (dropout): Dropout(p=0.1, inplace=False)
      )
    )
  )
)
Prepare dev:   0%|          | 0/14681 [00:00<?, ?it/s]Prepare dev:  73%|¨€¨€¨€¨€¨€¨€¨€¨†  | 10692/14681 [00:00<00:00, 105909.81it/s]                                                                      Prepare test:   0%|          | 0/14681 [00:00<?, ?it/s]Prepare test:  65%|¨€¨€¨€¨€¨€¨€¨„   | 9612/14681 [00:00<00:00, 95212.08it/s]                                                                     Optimizer: Adam
…
